…
small_block = nn.Sequential(\n    nn.Conv2d(3, 16, kernel_size=3, padding=1),\n    nn.MaxPool2d(2),\n    nn.Conv2d(16, 32, kernel_size=3, padding=1),\n    nn.MaxPool2d(2),\n)\n\nsummary(small_block, input_size=(1, 3, 32, 32))\n```\n\n::: {.cell-output .cell-output-display execution_count=10}\n```\n==========================================================================================\nLayer (type:depth-idx)                   Output Shape              Param #\n==========================================================================================\nSequential                               [1, 32, 8, 8]             --\n├─Conv2d: 1-1                            [1, 16, 32, 32]           448\n├─MaxPool2d: 1-2                         [1, 16, 16, 16]           --\n├─Conv2d: 1-3                            [1, 32, 16, 16]           4,640\n├─MaxPool2d: 1-4                         [1, 32, 8, 8]             --\n==========================================================================================\nTotal params: 5,088\nTrainable params: 5,088\nNon-trainable params: 0\nTotal mult-adds (Units.MEGABYTES): 1.65\n==========================================================================================\nInput size (MB): 0.01\nForward/backward pass size (MB): 0.20\nParams size (MB): 0.02\nEstimated Total 
…
rchinfo`\n\nBefore training, let's confirm the architecture works as designed by inspecting it with `torchinfo`:\n\n::: {#721c8c09 .cell execution_count=12}\n``` {.python .cell-code}\nsummary(model, input_size=(1, 3, 32, 32))\n```\n\n::: {.cell-output .cell-output-display execution_count=12}\n```\n==========================================================================================\nLayer (type:depth-idx)                   Output Shape              Param #\n==========================================================================================\nSmallVGG                                 [1, 10]                   --\n├─Sequential: 1-1                        [1, 128, 4, 4]            --\n│    └─Conv2d: 2-1                       [1, 32, 32, 32]           896\n│    └─ReLU: 2-2                         [1, 32, 32, 32]           --\n│    └─Conv2d: 2-3                       [1, 32, 32, 32]           9,248\n│    └─ReLU: 2-4                         [1, 32, 32, 32]           --\n│    └─MaxPool2d: 2-5                    [1, 32, 16, 16]           --\n│    └─Conv2d: 2-6                       [1, 64, 16, 16]           18,496\n│    └─ReLU: 2-7                         [1, 64, 16, 16]           --\n│    └─Conv2d: 2-8                       [1, 64, 16, 16]           36,928\n│    └─ReLU: 2-9                         [1, 64, 16, 16]           --\n│    └─MaxPool2d: 2-10                   [1, 64, 8, 8]             --\n│    └─Conv2d: 2-11                      [1, 128, 8, 8]            73,856\n│    └─ReLU: 2-12                        [1, 128, 8, 8]            --\n│    └─Conv2d: 2-13                      [1, 128, 8, 8]            147,584\n│    └─ReLU: 2-14                        [1, 128, 8, 8]            --\n│    └─MaxPool2d: 2-15                   [1, 128, 4, 4]            --\n├─Sequential: 1-2                        [1, 10]                   --\n│    └─Flatten: 2-16                     [1, 2048]                 --\n│    └─Linear: 2-17                      [1, 256]                  524,544\n│    └─ReLU: 2-18                        [1, 256]                  --\n│    └─Linear: 2-19                      [1, 10]                   2,570\n==========================================================================================\nTotal params: 814,122\nTrainable params: 814,122\nNon-trainable params: 0\nTotal mult-adds (Units.MEGABYTES): 39.28\n==========================================================================================\nInput size (MB): 0.01\nForward/backward pass size (MB): 0.92\nParams size (MB): 3.26\nEstimated T
…
