…
n        try:\n            x = layer(x)\n        except Exception:\n            continue\n        n_params = sum(p.numel() for p in layer.parameters(recurse=False))\n        running += n_params\n        if n_params > 0 or \"Pool\" in layer.__class__.__name__:\n            print(f\"{name:<35}{str(tuple(x.shape)):<22}{n_params:>12,}\")\n    print(f\"{'Total':<35}{'':<22}{running:>12,}\")\n\nlayer_summary(model, input_shape=(1, 3, 32, 32))\n```\n\n::: {.cell-output .cell-output-stdout}\n```\nLayer                              Output Shape                Params\nfeatures.0                         (1, 32, 32, 32)                896\nfeatures.2                         (1, 32, 32, 32)              9,248\nfeatures.4                         (1, 32, 16, 16)                  0\nfeatures.5                         (1, 64, 16, 16)             18,496\nfeatures.7                         (1, 64, 16, 16)             36,928\nfeatures.9                         (1, 64, 8, 8)                    0\nfeatures.10                        (1, 128, 8, 8)              73,856\nfeatures.12                        (1, 128, 8, 8)             147,584\nfeatures.14                        (1, 128, 4, 4)                   0\nclassifier.1                       (1, 256)                   524,544\nclassifier.3                       (1, 10)                      2,570\nTotal                                                         814,122\n```\n:::\n:::\n\n\n::: {.callout-note}\n## The FC Layer Dominates\n\nLook at the breakdown carefully. The single `Linear(2048, 256)` layer accounts for roughly **64%** of the entire model's parameters (524,544 out of 814,122). The six conv layers combined hold only about 287,000 parameters. This is a very common pattern in cl
…
