…
from torchinfo import summary

small_block = nn.Sequential(
    nn.Conv2d(3, 16, kernel_size=3, padding=1),
    nn.MaxPool2d(2),
    nn.Conv2d(16, 32, kernel_size=3, padding=1),
    nn.MaxPool2d(2),
)

summary(small_block, input_size=(1, 3, 32, 32))
```

The output is divided into three sections: a per-layer table, a parameter summary, and a memory estimate.

::: {.callout-note}
## Reading the Per-Layer Table

```
Layer (type:depth-idx)                   Output Shape              Param #
==========================================================================================
Sequential                               [1, 32, 8, 8]             --
├─Conv2d: 1-1                            [1, 16, 32, 32]           448
├─MaxPool2d: 1-2                         [1, 16, 16, 16]           --
├─Conv2d: 1-3                            [1, 32, 16, 16]           4,640
├─MaxPool2d: 1-4                         [1, 32, 8, 8]             --
```

- **`Layer (type:depth-idx)`** shows the module hierarchy. The index `1-1`, `1-2`, ... encodes depth and order within the module tree. For nested architectures like ResNet, this column makes the tree structure immediately readable.
- **`Output Shape`** is the tensor shape **after** that layer runs, in `[batch, channels, H, W]` format. Following this column top to bottom shows how the input is transformed: channels go 3 → 16 → 32 while spatial size shrinks 32 → 16 → 8.
…
